models/NN2x2.pth (torch, 5492 bytes, 6 tensors)

layers.0.weight f4 [30, 2]
0	0xbe9e6ade	-0.30940908
1	0x3dd8375f	0.10557436
2	0xbeb617ae	-0.3556494
3	0x3e91832d	0.28420392
4	0xbf1aacdb	-0.60420007
5	0x3f068645	0.5254863
6	0xbf039278	-0.5139537
7	0xbf0feaff	-0.5621795
8	0xbeecccc9	-0.4624999
9	0x3ec37a15	0.3817908
10	0xbe8f3cc8	-0.2797606
11	0x3eac9503	0.33707437
12	0xbf19a2ed	-0.6001423
13	0xbedba84d	-0.4290184
14	0xbe84ee93	-0.25963268
15	0xbe0e4ba5	-0.13896044
16	0xbf085b3a	-0.532642
17	0x3edf8c50	0.43661737
18	0xbe3732a9	-0.17890419
19	0x3e8cb31e	0.27480406
20	0x3f07e637	0.53085655
21	0x3db970b0	0.090546966
22	0x3e0b506f	0.13604902
23	0x3f3dc884	0.7413409
24	0xbea8c6f8	-0.329643
25	0x3e884394	0.26614058
26	0xbea9508f	-0.33069274
27	0x3f116471	0.56793886
28	0x3f24d0fa	0.6438137
29	0xbf3135c5	-0.6922267
30	0x3f0405dc	0.5157144
31	0x3ec4f5ba	0.38468724
32	0x3e7f80be	0.24951455
33	0x3ea0f881	0.31439593
34	0x3f298632	0.6622039
35	0xbe08496c	-0.13309258
36	0xbf19514f	-0.5988969
37	0xbe4d65ed	-0.20058413
38	0xbf02bac8	-0.51066256
39	0x3dc42b2e	0.09578548
40	0xbc56a592	-0.0131009985
41	0xbee107c5	-0.4395124
42	0xbd9a2469	-0.07526476
43	0x3f366eb4	0.7126267
44	0x3cccd36e	0.025003161
45	0xbd72faf2	-0.05932135
46	0xbe0609a5	-0.13089617
47	0x3e448ddb	0.19194739
48	0x3f1be0ea	0.60890067
49	0x3ef93936	0.4867646
50	0x3e870d6d	0.2637743
51	0x3e0ec3ea	0.13941923
52	0x3e0fd795	0.14047082
53	0x3ec0b3fa	0.3763731
54	0xbd865b96	-0.065604374
55	0xbf2bd710	-0.67125034
56	0xbee11976	-0.43964738
57	0x3f1cbfb8	0.6123004
58	0x3dcf1462	0.101113096
59	0xbf1b249a	-0.60602725

layers.0.bias f4 [30]
0	0x3e10c25a	0.14136639
1	0x3f17355e	0.59065807
2	0xbf2a6326	-0.6655754
3	0xbef3bd1a	-0.4760521
4	0xbe84ba20	-0.25923252
5	0x3d6031e1	0.05473507
6	0xbe28e049	-0.16491808
7	0xbd9f23b1	-0.077704795
8	0xbf32ec54	-0.6989186
9	0x3eb27301	0.34853366
10	0x3f1e5be1	0.61858946
11	0x3ed938ce	0.4242615
12	0xbef88400	-0.48538208
13	0xbf0c1a69	-0.547278
14	0x3ea6e2ae	0.32594818
15	0xbc9f2eb5	-0.019431451
16	0x3e85fef1	0.26171067
17	0xbf297d36	-0.6620668
18	0xbd299f40	-0.04141164
19	0x3f043760	0.51646996
20	0x3ec0feb9	0.37694338
21	0x3d29489f	0.041329022
22	0x3e1a2b40	0.15055561
23	0xbd19efaf	-0.037582096
24	0xbebf40fb	-0.37354264
25	0xbe8810cb	-0.26575312
26	0xbec94190	-0.39307833
27	0x3f18dacf	0.59708875
28	0x3ec8d52f	0.39225146
29	0x3e898c3c	0.26864803

layers.2.weight f4 [20, 30]
0	0xbe34c710	-0.17654061
1	0xbc29a620	-0.010354549
2	0xbd6881a4	-0.05676426
3	0x3e0155cb	0.12630384
4	0xbe23d7f0	-0.16000342
5	0xbd557508	-0.052113563
6	0x3e368a5f	0.17826222
7	0x3dfb83ea	0.1228102
8	0x3d5aebe4	0.05344762
9	0xbe117310	-0.14204049
10	0x3eba979d	0.36443797
11	0xbeb13099	-0.3460739
12	0xbc8aa810	-0.016925842
13	0xbe504051	-0.20337035
14	0x3ed91821	0.4240122
15	0x3d6bfe98	0.057615846
16	0x3cb05d75	0.021528939
17	0x3eaa839f	0.33303544
18	0x3db91e27	0.09038954
19	0xbdc2e146	-0.09515624
20	0x3e7d9bb6	0.2476643
21	0xbe8ea820	-0.27862644
22	0x3dccf9d6	0.1000859
23	0xbd428258	-0.047487587
24	0x3d07cd01	0.03315449
25	0x3d6a83b1	0.057254497
26	0xbe236d63	-0.15959696
27	0x3e710531	0.23537137
28	0xbe2a6966	-0.16641769
29	0x3eb1aab3	0.34700546
30	0xbd6c8a85	-0.05774929
31	0x3d7f37dc	0.06230913
32	0x3e37f950	0.17966199
33	0xbda0658a	-0.07831867
34	0x3e2f82f8	0.17139804
35	0xbdbdf94b	-0.092760645
36	0x3da4d188	0.080477774
37	0x3d927ae3	0.07152345
38	0x3d475910	0.04866892
39	0x3e11743f	0.142045
40	0xbd996c37	-0.074913435
41	0x3d31cc44	0.043407694
42	0x3905fb17	0.00012777407
43	0xbe0f18a2	-0.1397424
44	0xbd359502	-0.044331558
45	0xbdfb96ea	-0.12284644
46	0x3da1bef9	0.07897753
47	0x3c8673e4	0.016412683
48	0x3c9281d3	0.01788417
49	0xbd6bf55a	-0.057607032
50	0x3a6623f5	0.0008779162
51	0xbd7998ec	-0.060936853
52	0x3d54c4b9	0.05194542
53	0x3e34d011	0.17657496
54	0x3cdd8724	0.02704198
55	0xbda59cc9	-0.08086545
56	0xbde54d99	-0.11196441
57	0x3c64a6d6	0.013955792
58	0xbe0fff57	-0.14062248
59	0xbe0c8686	-0.13723192
60	0xbdf0024a	-0.117191866
61	0xbd82ceb4	-0.06387082
62	0x3c4ddc62	0.01256475
63	0x3e00bd74	0.1257227
64	0x3d92a5b7	0.07160514
65	0x3e0f98df	0.1402316
66	0xbdeac740	-0.11463785
67	0x3c7c6e0a	0.015407095
68	0xbe28aa09	-0.16471113
69	0x3dd70f7b	0.105009995
70	0xbd58ddea	-0.05294601
71	0x3e2dffe8	0.16992152
72	0xbe04916c	-0.12946099
73	0x3e16f44c	0.1474163
74	0x3ce4c3e0	0.027925432
75	0x3dbc7efd	0.092039086
76	0xbc3b9dac	-0.011451166
77	0x3dfe8531	0.12427748
78	0x3df9dec8	0.12200695
79	0x3e0b8a7e	0.1362705
80	0xbd136af3	-0.035990667
81	0xbe10401f	-0.1408696
82	0xbbf1fabd	-0.0073846267
83	0x3d161623	0.036642205
84	0xbe1a4f95	-0.1506942
85	0xbde79110	-0.11306965
86	0xbe303da4	-0.17211014
87	0xbdfe2f52	-0.124113694
88	0x3e1ff1cd	0.15619583
89	0xbcb4857a	-0.022036303
90	0xbc36b568	-0.011151649
91	0x3bf03fc4	0.00733182
92	0x3de926b2	0.11384334
93	0xbe251810	-0.1612246
94	0xbe1040d7	-0.14087234
95	0xbd78a11a	-0.060700513
96	0xbdd7316f	-0.105074756
97	0x3dc0dbb3	0.09416904
98	0x3e04199a	0.12900391
99	0xbe3563b6	-0.17713818
100	0xbe1eaa6d	-0.154947
101	0xbe360fa1	-0.177794
102	0x3d8d0f59	0.06887693
103	0x3e1678ec	0.14694566
104	0xbe10f457	-0.14155708
105	0xbdad1add	-0.084523894
106	0x3d6df914	0.058098868
107	0xbdf428b4	-0.11921826
108	0x3e1ed0b5	0.15509303
109	0x3d2e5d0f	0.042569216
110	0xbd502e91	-0.05082566
111	0x3c424951	0.0118583
112	0x3d6925e0	0.056920886
113	0xbd84385d	-0.06456063
114	0xbe10dd2a	-0.14146867
115	0x3aa0d9c8	0.0012271935
116	0x3b59f1f1	0.003325578
117	0x3b7147c4	0.0036816457
118	0xbcda42a3	-0.026643103
119	0x3df01436	0.11722605
120	0xbd50afe6	-0.050949
121	0xbc90c48d	-0.017671848
122	0x3d99bf7b	0.07507225
123	0xbdeb5aa8	-0.11491901
124	0x3d483c7c	0.048885807
125	0xbd255b09	-0.04037002
126	0x3db35b0b	0.087575994
127	0xbdcad57a	-0.09903999
128	0x3bdd1b4b	0.0067476383
129	0x3c925178	0.017861113
130	0xbe166c93	-0.14689855
131	0xbe07f18e	-0.1327574
132	0x3d8f6674	0.07001963
133	0xbd59a8b4	-0.053139403
134	0x3dde10a6	0.10843019
135	0xbe38afd2	-0.1803582
136	0xbdb8d5db	-0.09025165
137	0xbe19fd0f	-0.1503794
138	0x3d955dfc	0.07293317
139	0xbbad717e	-0.0052930703
140	0xbd0b7c33	-0.034053992
141	0xbcf8d53a	-0.030375112
142	0xbe122248	-0.1427089
143	0x3d54143f	0.05177712
144	0x3b951efc	0.0045508128
145	0xbe01054f	-0.12599681
146	0x3d8cb2ce	0.06870042
147	0xbb707d1c	-0.0036695665
148	0xbe34d063	-0.17657618
149	0x3dc92282	0.09821035
150	0x3e117543	0.14204888
151	0x3dfb241a	0.12262745
152	0xbbdf1d36	-0.006808902
153	0x3bf03388	0.0073303618
154	0x3e70d47b	0.23518555
155	0x3e882f51	0.265986
156	0xbe0d1d53	-0.13780718
157	0xbda8e269	-0.08246309
158	0x3e6fcf3e	0.234189
159	0x3e4ea4be	0.20180032
160	0x3aa3aa89	0.0012486737
161	0x3dfac8cb	0.122453295
162	0x3e461b24	0.19346291
163	0xbd1f797e	-0.038934223
164	0xbe81e1ca	-0.25367576
165	0xbd43f32d	-0.047839332
166	0x3d4acc5e	0.049511306
167	0xbe5ffe10	-0.21874261
168	0x3e2bb2ba	0.16767398
169	0x3e8fead8	0.2810886
170	0xbe310e9b	-0.17290728
171	0x3e509996	0.20371088
172	0xbdaf957a	-0.08573432
173	0x3e5c9e46	0.21544752
174	0x3db9bcd5	0.0906922
175	0x3dbbb071	0.09164513
176	0x3db71fa5	0.089415826
177	0xbe0a0c60	-0.13481283
178	0x3eada31d	0.33913508
179	0xbdcd419e	-0.10022281
180	0xbd885f12	-0.06658758
181	0x3dc10dc5	0.094264545
182	0x3d6aabfd	0.057292927
183	0xbd41c5a8	-0.04730764
184	0xbd4cf218	-0.050035566
185	0xbe255522	-0.16145757
186	0xbd4cfe07	-0.050046947
187	0xbd977a1e	-0.07396339
188	0xbdcbccde	-0.09951185
189	0xbe28dcb0	-0.16490436
190	0x3dfc918b	0.123324476
191	0xbe2a3ba0	-0.16624308
192	0x3e39980a	0.18124405
193	0xbdc42015	-0.09576432
194	0xbd05de37	-0.032682624
195	0x3e080b72	0.13285616
196	0x3d44ede8	0.048078448
197	0xbd675456	-0.056476913
198	0xbe16829c	-0.14698261
199	0xbd98e03a	-0.07464643
200	0x3e172a93	0.14762335
201	0xbd8d315a	-0.06894179
202	0x3e1e81ec	0.15479249
203	0xbd00c9a2	-0.031442292
204	0xbce59b04	-0.028028019
205	0x3d945b77	0.07244008
206	0xbcdbc30c	-0.026826404
207	0xbc3d838c	-0.011567008
208	0x3e017c02	0.12644961
209	0x3d562d52	0.052289315
210	0x3cdb7e89	0.026793735
211	0x3e461d2f	0.1934707
212	0x3e817ce6	0.25290602
213	0x3d3c7b52	0.046016045
214	0x3cb7acf9	0.022421347
215	0x3e0c770c	0.13717288
216	0xbc82da7c	-0.015973322
217	0xbe122aaa	-0.14274088
218	0x3b331502	0.0027325754
219	0x3e2f4374	0.17115575
220	0x3d629292	0.05531556
221	0x3e79f41d	0.24409528
222	0xbda126a2	-0.07868697
223	0x3e84bef1	0.25926927
224	0xbd9c0ab8	-0.07619232
225	0x3dabe147	0.083925776
226	0xbc8ed277	-0.017434342
227	0xbdb4597c	-0.0880613
228	0x3da7a8c2	0.08186485
229	0x3ceb23d9	0.028703617
230	0xbded25e6	-0.11579494
231	0x3da41a72	0.080128565
232	0x3e167788	0.14694035
233	0x3e0fd82e	0.1404731
234	0x3e13d003	0.14434819
235	0xbe1f5c7a	-0.15562621
236	0x3dde60e7	0.108583264
237	0x3d3ab3c1	0.045581583
238	0x3d82a326	0.06378774
239	0x3bbd1d32	0.0057713026
240	0x3c8f0b21	0.017461361
241	0xbe35bfc4	-0.17748934
242	0xbe0bc58d	-0.13649578
243	0x3e187f86	0.14892396
244	0xbd78bff2	-0.06072993
245	0xbd49dd99	-0.049283598
246	0xbdeca5b8	-0.11555046
247	0xbddf95ce	-0.10917245
248	0x3df4f730	0.1196121
249	0x3c634cdc	0.013873305
250	0xbd793497	-0.06084117
251	0x3accf3c0	0.0015636608
252	0xbdd4d1c5	-0.10391573
253	0xbe58c911	-0.21170451
254	0xbe399bc7	-0.1812583
255	0x3d43f6eb	0.0478429

layers.2.bias f4 [20]
0	0x3e361443	0.17781167
1	0xbda50ecf	-0.08059465
2	0xbe4d5d32	-0.20055082
3	0xbe04497b	-0.12918656
4	0x3db1a99a	0.08674927
5	0xbc7eff44	-0.01556379
6	0x3df77d1c	0.120844096
7	0x3d822f04	0.06356624
8	0xbd40057d	-0.046880234
9	0x3dd5a893	0.104325436
10	0x3d8fddef	0.07024752
11	0xbe045697	-0.12923656
12	0x3cfc419b	0.030793002
13	0xbbaace27	-0.0052125636
14	0xbdf5f626	-0.1200984
15	0x3d905110	0.070467114
16	0x3dae9400	0.085243225
17	0xbd9eb363	-0.07749059
18	0xbe0be643	-0.13662057
19	0x3d9e4780	0.07728481

layers.4.weight f4 [2, 20]
0	0xbf1185bb	-0.5684468
1	0x3d4a3fde	0.049377315
2	0xbcd0ee70	-0.02550432
3	0x3d190ae0	0.037363887
4	0x3d36859a	0.044561006
5	0x3ec4ef57	0.38463852
6	0xbe67ab74	-0.22623998
7	0x3e32a53e	0.17445847
8	0xbdd3508b	-0.10318097
9	0x3e6b3fb3	0.22973518
10	0xbdb54248	-0.08850533
11	0x3e477dd9	0.19481601
12	0x3d032185	0.03201439
13	0xbd22f2d3	-0.039782356
14	0xbdc242fd	-0.09485433
15	0x3e99886e	0.299869
16	0xbe1151b6	-0.14191326
17	0xbdd232d7	-0.10263603
18	0x3cc7de70	0.024398059
19	0xbe1447f9	-0.1448058
20	0x3f0cfaf1	0.55070406
21	0x3d6673ba	0.05626271
22	0xbe53d322	-0.2068601
23	0xbe61ae66	-0.22039184
24	0x3dc7c6bf	0.09754705
25	0xbed3ea12	-0.4138952
26	0xbd7d6a28	-0.061868817
27	0xbecaa4ab	-0.39578757
28	0x3d60ee26	0.054914616
29	0xbe2941d8	-0.16529024
30	0x3dd61330	0.104528785
31	0xbe5bc1ae	-0.21460602
32	0x3e833039	0.25622728
33	0xbe4316cd	-0.19051667
34	0x3cf812e7	0.03028245
35	0xbe9b6f6d	-0.3035845
36	0xbe244220	-0.1604085
37	0xbbceeee6	-0.0063151
38	0xbeb0afb9	-0.34509066
39	0x3e3e9315	0.18610795

layers.4.bias f4 [2]
0	0xbe195dc9	-0.14977182
1	0x3e23c26d	0.15992136
